…
_______________________________
---------------------------------------
Bsic information regardin the data:
_______________________________________
Trainings data...
... input shape=(1194, 5, 26)
... target shape=(1194, 4)

Test data...
... input shape=(133, 5, 26)
... target shape=(133, 4)

---------------------------------------
_______________________________________
_________________________________________________________________
Layer (type)                 Output Shape              Param #   
=================================================================
reshape_1 (Reshape)          (None, 5, 26)             0         
_________________________________________________________________
LSTM_Layer1 (LSTM)           (None, 5, 128)            79360     
_________________________________________________________________
LSTM_Layer2 (LSTM)           (None, 5, 128)            131584    
_________________________________________________________________
LSTM_Layer3 (LSTM)           (None, 128)               131584    
_________________________________________________________________
Feature_Layer1 (Dense)       (None, 128)               16512     
_________________________________________________________________
batch_normalization_1 (Batch (None, 128)               512       
_________________________________________________________________
activation_1 (Activation)    (None, 128)               0         
_________________________________________________________________
Feature_Layer2 (Dense)       (None, 128)               16512     
_________________________________________________________________
batch_normalization_2 (Batch (None, 128)               512       
_________________________________________________________________
activation_2 (Activation)    (None, 128)               0         
_________________________________________________________________
Output_Layer (Dense)         (None, 4)                 516       
=================================================================
Total params: 377,092
Trainable params: 376,580
Non-trainable params: 512
_________________________________________________________________
Train on 1074 samples, validate on 120 samples
Epoch 1/42
 - 6s - loss: 1.0845 - acc: 0.5959 - val_loss: 0.8764 - val_acc: 0.7167
Epoch 2/42
 - 1s - loss: 0.7473 - acc: 0.7905 - val_loss: 0.7935 - val_acc: 0.7500
…
_______________________________________
---------------------------------------
Bsic information regardin the data:
_______________________________________
Trainings data...
... input shape=(1194, 10, 26)
... target shape=(1194, 4)

Test data...
... input shape=(133, 10, 26)
... target shape=(133, 4)

---------------------------------------
_______________________________________
_________________________________________________________________
Layer (type)                 Output Shape              Param #   
=================================================================
reshape_2 (Reshape)          (None, 10, 26)            0         
_________________________________________________________________
LSTM_Layer1 (LSTM)           (None, 10, 128)           79360     
_________________________________________________________________
LSTM_Layer2 (LSTM)           (None, 10, 128)           131584    
_________________________________________________________________
LSTM_Layer3 (LSTM)           (None, 128)               131584    
_________________________________________________________________
Feature_Layer1 (Dense)       (None, 128)               16512     
_________________________________________________________________
batch_normalization_3 (Batch (None, 128)               512       
_________________________________________________________________
activation_4 (Activation)    (None, 128)               0         
_________________________________________________________________
Feature_Layer2 (Dense)       (None, 128)               16512     
_________________________________________________________________
batch_normalization_4 (Batch (None, 128)               512       
_________________________________________________________________
activation_5 (Activation)    (None, 128)               0         
_________________________________________________________________
Output_Layer (Dense)         (None, 4)                 516       
=================================================================
Total params: 377,092
Trainable params: 376,580
Non-trainable params: 512
_________________________________________________________________
Train on 1074 samples, validate on 120 samples
Epoch 1/42
 - 6s - loss: 1.1334 - acc: 0.5791 - val_loss: 0.6899 - val_acc: 0.8000
Epoch 2/42
 - 1s - loss: 0.6798 - acc: 0.7700 - val_loss: 0.5882 - val_acc: 0.8833
…
_______________________________________
---------------------------------------
Bsic information regardin the data:
_______________________________________
Trainings data...
... input shape=(1194, 15, 26)
... target shape=(1194, 4)

Test data...
... input shape=(133, 15, 26)
... target shape=(133, 4)

---------------------------------------
_______________________________________
_________________________________________________________________
Layer (type)                 Output Shape              Param #   
=================================================================
reshape_3 (Reshape)          (None, 15, 26)            0         
_________________________________________________________________
LSTM_Layer1 (LSTM)           (None, 15, 128)           79360     
_________________________________________________________________
LSTM_Layer2 (LSTM)           (None, 15, 128)           131584    
_________________________________________________________________
LSTM_Layer3 (LSTM)           (None, 128)               131584    
_________________________________________________________________
Feature_Layer1 (Dense)       (None, 128)               16512     
_________________________________________________________________
batch_normalization_5 (Batch (None, 128)               512       
_________________________________________________________________
activation_7 (Activation)    (None, 128)               0         
_________________________________________________________________
Feature_Layer2 (Dense)       (None, 128)               16512     
_________________________________________________________________
batch_normalization_6 (Batch (None, 128)               512       
_________________________________________________________________
activation_8 (Activation)    (None, 128)               0         
_________________________________________________________________
Output_Layer (Dense)         (None, 4)                 516       
=================================================================
Total params: 377,092
Trainable params: 376,580
Non-trainable params: 512
_________________________________________________________________
Train on 1074 samples, validate on 120 samples
Epoch 1/42
 - 8s - loss: 0.9055 - acc: 0.6601 - val_loss: 0.5949 - val_acc: 0.8167
Epoch 2/42
 - 1s - loss: 0.5614 - acc: 0.8240 - val_loss: 0.5167 - val_acc: 0.8417
…
_______________________________________
---------------------------------------
Bsic information regardin the data:
_______________________________________
Trainings data...
... input shape=(1194, 30, 26)
... target shape=(1194, 4)

Test data...
... input shape=(133, 30, 26)
... target shape=(133, 4)

---------------------------------------
_______________________________________
_________________________________________________________________
Layer (type)                 Output Shape              Param #   
=================================================================
reshape_4 (Reshape)          (None, 30, 26)            0         
_________________________________________________________________
LSTM_Layer1 (LSTM)           (None, 30, 128)           79360     
_________________________________________________________________
LSTM_Layer2 (LSTM)           (None, 30, 128)           131584    
_________________________________________________________________
LSTM_Layer3 (LSTM)           (None, 128)               131584    
_________________________________________________________________
Feature_Layer1 (Dense)       (None, 128)               16512     
_________________________________________________________________
batch_normalization_7 (Batch (None, 128)               512       
_________________________________________________________________
activation_10 (Activation)   (None, 128)               0         
_________________________________________________________________
Feature_Layer2 (Dense)       (None, 128)               16512     
_________________________________________________________________
batch_normalization_8 (Batch (None, 128)               512       
_________________________________________________________________
activation_11 (Activation)   (None, 128)               0         
_________________________________________________________________
Output_Layer (Dense)         (None, 4)                 516       
=================================================================
Total params: 377,092
Trainable params: 376,580
Non-trainable params: 512
_________________________________________________________________
Train on 1074 samples, validate on 120 samples
Epoch 1/42
 - 10s - loss: 0.7809 - acc: 0.7020 - val_loss: 0.4676 - val_acc: 0.8833
Epoch 2/42
 - 3s - loss: 0.4163 - acc: 0.8994 - val_loss: 0.3988 - val_acc: 0.9250
…
_______________________________________
---------------------------------------
Bsic information regardin the data:
_______________________________________
Trainings data...
... input shape=(1194, 45, 26)
... target shape=(1194, 4)

Test data...
... input shape=(133, 45, 26)
... target shape=(133, 4)

---------------------------------------
_______________________________________
_________________________________________________________________
Layer (type)                 Output Shape              Param #   
=================================================================
reshape_5 (Reshape)          (None, 45, 26)            0         
_________________________________________________________________
LSTM_Layer1 (LSTM)           (None, 45, 128)           79360     
_________________________________________________________________
LSTM_Layer2 (LSTM)           (None, 45, 128)           131584    
_________________________________________________________________
LSTM_Layer3 (LSTM)           (None, 128)               131584    
_________________________________________________________________
Feature_Layer1 (Dense)       (None, 128)               16512     
_________________________________________________________________
batch_normalization_9 (Batch (None, 128)               512       
_________________________________________________________________
activation_13 (Activation)   (None, 128)               0         
_________________________________________________________________
Feature_Layer2 (Dense)       (None, 128)               16512     
_________________________________________________________________
batch_normalization_10 (Batc (None, 128)               512       
_________________________________________________________________
activation_14 (Activation)   (None, 128)               0         
_________________________________________________________________
Output_Layer (Dense)         (None, 4)                 516       
=================================================================
Total params: 377,092
Trainable params: 376,580
Non-trainable params: 512
_________________________________________________________________
Train on 1074 samples, validate on 120 samples
Epoch 1/42
 - 12s - loss: 0.9480 - acc: 0.6266 - val_loss: 0.6248 - val_acc: 0.8000
Epoch 2/42
 - 4s - loss: 0.5019 - acc: 0.8613 - val_loss: 0.5035 - val_acc: 0.8667
…
_______________________________________
---------------------------------------
Bsic information regardin the data:
_______________________________________
Trainings data...
... input shape=(1194, 60, 26)
... target shape=(1194, 4)

Test data...
... input shape=(133, 60, 26)
... target shape=(133, 4)

---------------------------------------
_______________________________________
_________________________________________________________________
Layer (type)                 Output Shape              Param #   
=================================================================
reshape_6 (Reshape)          (None, 60, 26)            0         
_________________________________________________________________
LSTM_Layer1 (LSTM)           (None, 60, 128)           79360     
_________________________________________________________________
LSTM_Layer2 (LSTM)           (None, 60, 128)           131584    
_________________________________________________________________
LSTM_Layer3 (LSTM)           (None, 128)               131584    
_________________________________________________________________
Feature_Layer1 (Dense)       (None, 128)               16512     
_________________________________________________________________
batch_normalization_11 (Batc (None, 128)               512       
_________________________________________________________________
activation_16 (Activation)   (None, 128)               0         
_________________________________________________________________
Feature_Layer2 (Dense)       (None, 128)               16512     
_________________________________________________________________
batch_normalization_12 (Batc (None, 128)               512       
_________________________________________________________________
activation_17 (Activation)   (None, 128)               0         
_________________________________________________________________
Output_Layer (Dense)         (None, 4)                 516       
=================================================================
Total params: 377,092
Trainable params: 376,580
Non-trainable params: 512
_________________________________________________________________
Train on 1074 samples, validate on 120 samples
Epoch 1/42
 - 14s - loss: 0.6959 - acc: 0.7393 - val_loss: 0.3993 - val_acc: 0.9083
Epoch 2/42
 - 6s - loss: 0.4296 - acc: 0.8827 - val_loss: 0.3830 - val_acc: 0.9250
…
_______________________________________
---------------------------------------
Bsic information regardin the data:
_______________________________________
Trainings data...
... input shape=(1194, 75, 26)
... target shape=(1194, 4)

Test data...
... input shape=(133, 75, 26)
... target shape=(133, 4)

---------------------------------------
_______________________________________
_________________________________________________________________
Layer (type)                 Output Shape              Param #   
=================================================================
reshape_7 (Reshape)          (None, 75, 26)            0         
_________________________________________________________________
LSTM_Layer1 (LSTM)           (None, 75, 128)           79360     
_________________________________________________________________
LSTM_Layer2 (LSTM)           (None, 75, 128)           131584    
_________________________________________________________________
LSTM_Layer3 (LSTM)           (None, 128)               131584    
_________________________________________________________________
Feature_Layer1 (Dense)       (None, 128)               16512     
_________________________________________________________________
batch_normalization_13 (Batc (None, 128)               512       
_________________________________________________________________
activation_19 (Activation)   (None, 128)               0         
_________________________________________________________________
Feature_Layer2 (Dense)       (None, 128)               16512     
_________________________________________________________________
batch_normalization_14 (Batc (None, 128)               512       
_________________________________________________________________
activation_20 (Activation)   (None, 128)               0         
_________________________________________________________________
Output_Layer (Dense)         (None, 4)                 516       
=================================================================
Total params: 377,092
Trainable params: 376,580
Non-trainable params: 512
_________________________________________________________________
Train on 1074 samples, validate on 120 samples
Epoch 1/42
 - 16s - loss: 0.8310 - acc: 0.6769 - val_loss: 0.5519 - val_acc: 0.8250
Epoch 2/42
 - 7s - loss: 0.5091 - acc: 0.8389 - val_loss: 0.4931 - val_acc: 0.8500
…
_______________________________________
---------------------------------------
Bsic information regardin the data:
_______________________________________
Trainings data...
... input shape=(1194, 90, 26)
... target shape=(1194, 4)

Test data...
... input shape=(133, 90, 26)
... target shape=(133, 4)

---------------------------------------
_______________________________________
_________________________________________________________________
Layer (type)                 Output Shape              Param #   
=================================================================
reshape_8 (Reshape)          (None, 90, 26)            0         
_________________________________________________________________
LSTM_Layer1 (LSTM)           (None, 90, 128)           79360     
_________________________________________________________________
LSTM_Layer2 (LSTM)           (None, 90, 128)           131584    
_________________________________________________________________
LSTM_Layer3 (LSTM)           (None, 128)               131584    
_________________________________________________________________
Feature_Layer1 (Dense)       (None, 128)               16512     
_________________________________________________________________
batch_normalization_15 (Batc (None, 128)               512       
_________________________________________________________________
activation_22 (Activation)   (None, 128)               0         
_________________________________________________________________
Feature_Layer2 (Dense)       (None, 128)               16512     
_________________________________________________________________
batch_normalization_16 (Batc (None, 128)               512       
_________________________________________________________________
activation_23 (Activation)   (None, 128)               0         
_________________________________________________________________
Output_Layer (Dense)         (None, 4)                 516       
=================================================================
Total params: 377,092
Trainable params: 376,580
Non-trainable params: 512
_________________________________________________________________
Train on 1074 samples, validate on 120 samples
Epoch 1/42
 - 19s - loss: 0.7928 - acc: 0.7142 - val_loss: 0.6348 - val_acc: 0.7833
Epoch 2/42
 - 9s - loss: 0.4707 - acc: 0.8696 - val_loss: 0.5597 - val_acc: 0.8333
…
